IoTWebsiteREST/djangoproject/AI/rnn_model.pth (torch, 304220 bytes, 5 tensors)

lstm.weight_ih_l0 f4 [512, 17]
00000000: 2681 e53d deb9 4e3d 7311 133e 12ae 5039
00000010: 05e1 b33d 473d e83d 2f1a 6f3d ee54 403d
00000020: 7747 0c3d c56c 4d3d 7e6a 12bd 5f26 583c
00000030: d62f 66bd 08b0 95bc ceb0 69bd 7f95 75ba
00000040: e728 433d 9360 983d 7ee4 ab3c c275 163e
00000050: ec1b 7e3d 3331 713d f797 413d 0eb6 c13d
00000060: b06a a9ba 7694 bf3c 4f66 ab3d 0bdf 9a3b
00000070: a0e0 9339 5edf 1dbe 510d 9cbd e5d8 82bd
00000080: 4de6 313d 70f4 863d 2293 113e d973 123e
00000090: 1b8f 143e e209 383d d7f2 003e 1976 163e
000000a0: c413 fd3d 7b30 a63d 754a b83d 50d7 783d
000000b0: e487 92bc fdb4 ed3c 951c 04be 1c0f 4dbd
000000c0: b70c 73bd 17d5 923d 7424 c53c 089c ad3d
000000d0: d92d 013e dd48 a93c c499 253e 9eb6 463d
000000e0: f15d c63c 1ff4 ee3d 1fb7 db3d 8cac 8b3d
000000f0: f181 e43c 7d2a 953d 97c4 453a 203a 25be
00000100: b79e a0bd 045b 9b3d c217 b0bb 56b7 6e3d
00000110: 8c99 1c3e 84f7 c93d fb32 f53d 28cd c93d
00000120: e545 db3c edd9 2b3e a3ca 223e 8d4b 2e3e
00000130: bc7a 803d 7853 313e 71d7 57bc a9a7 92bd
00000140: 4da7 09be 3d43 0abe a6b4 c3bd 14bb 0cbc
00000150: 4dc3 053d 8058 ee3d 93bb 103d d338 d73d
00000160: b0d9 033e 62a7 f13d 67ec a13c e559 953d
00000170: 9bee c9bc 5441 13bd d162 ce3d 910c 91bc
00000180: 1d91 63bc 1f0f 9f3c 9adb cabd 96ec 67bd
00000190: fc53 223d 5235 de3c 4129 c03d 8590 f23c
000001a0: ba0e cd3d f1c4 843c 6695 70bc 6dbe 003e
000001b0: aff2 0e3d 8320 b53c 6280 c33d 1813 933d
000001c0: d3ca 69ba cf6e 8abb db80 23be b9d0 febd
000001d0: 9e99 11bd e189 ba3d c47e 4e3d fd26 a43d
000001e0: be6f ac3d 9221 3e3e 319d 5a3e ba5f c43d
000001f0: 0b4a 7d3d 6578 ed3d e534 4f3d 25d1 0c3e
00000200: 7c60 173e bbe4 273c 0164 5a3d 855f 1cbe
00000210: 456b a9bd 7140 a33b bd4c 773d 825b 723d
00000220: 2e81 df3d a64e f43d db3b e0bc a3fe 013e
00000230: dfc8 3a3d 3e54 de3d 7553 883c b715 573d
00000240: 5831 cb3d 05e0 673d 3432 c83c f01b 9abc
00000250: f555 1d3d 9d03 09bd e728 9b3d 9fb2 0a3d
00000260: 4908 2c3d b52d 6cbf dad1 92be 1384 b7be
00000270: ca51 9abe a6c7 b7be df9f 80be 0a41 8fbe
00000280: 1058 cabe d2ea abbe 829c 8fbe 44e9 b5bd
00000290: ac1e b83d 509e a43e 1c9a ce3e 1256 1dbe
000002a0: b41b 55bd 1cbf 0c3e eeae 7e3d f537 683d
000002b0: 780b 0c3e 6259 1e3e 3485 da3d 81ba d23d
000002c0: 8051 de3c ccfd 083e 5d9b 3f3d a6cf 1a3e
000002d0: e723 813d d466 c63b 6902 9abd bc0a abbc
000002e0: 29a3 8e3d 044e 53bd ceb0 3c3d 37e1 d0bf
000002f0: 9a19 74be 264f 84be fc07 68be f1a4 6dbe
00000300: 2ab7 72be e401 79be 30eb 79be 9006 81be
00000310: a3f5 7ebe cbbc 973c 39e9 773b ee53 493f
00000320: 6b01 573f 9cfc a93d 59e6 a4bb 2393 133e
00000330: 133f 8e3d 0553 1b3e b0d8 903d e272 393d
00000340: f39e 4abc b397 bf3d 3a7c 903d 7b87 133d
00000350: ca8a 0d3e 2e5e e33c 5de0 543c 73bb c0bb
00000360: 9273 66bd c649 c2bd 3533 163d 040b 1b3d
00000370: 66e7 b53d 36e2 0d3e b942 0a3e 5066 253e
00000380: f630 c93d 8742 f63d 0217 053e 7196 8e3d
00000390: 481b b03d 5e8f 103e d297 083e af7b cebc
000003a0: 18f4 93bc 4c56 e9bd 34b7 1bbe e0d1 f93c
000003b0: fcdc 8bbd c033 783d 04e5 793d a8da 0c3e
000003c0: 7234 933d d85a 4c3d fec2 113e c824 8f3d
000003d0: 8bcb ed3d a56c d33d d486 863d 4be8 f33d
000003e0: ef99 8fbd 291d 2c3d 774b 33be 24f2 3abd
000003f0: 7140 59bc 8ec4 ab3d 3034 903d 42b3 943d
0.11206274 0.050470226 0.14362125 0.00019901272 0.087831534 0.11339813 0.05837458 0.046955995
0.03424784 0.05015256 -0.03574609 0.013192742 -0.056197964 -0.018272415 -0.05705338 -0.0009368285
0.04764643 0.07440295 0.020982977 0.14693359 0.062038347 0.05888481 0.047264066 0.09458552
-0.0012925472 0.023386221 0.08369123 0.004726296 0.00028205384 -0.15417239 -0.076197274 -0.063890256
0.043432523 0.065895915 0.14216283 0.14302005 0.14507715 0.0449313 0.12592636 0.14693488
0.123572856 0.08114716 0.089985766 0.060752213 -0.017887063 0.029016966 -0.12901528 -0.050063238
-0.059338298 0.0716955 0.024065234 0.08477026 0.12615146 0.020664627 0.16171938 0.048514
0.024214717 0.11667656 0.10728287 0.0682002 0.027893992 0.072834946 0.0007544248 -0.16135454
-0.078427725 0.07585719 -0.005373926 0.05828031 0.15292948 0.09861663 0.119726144 0.098535836
0.026766727 0.16782351 0.15897612 0.17021008 0.0627341 0.17316997 -0.013173924 -0.07160885
-0.13442726 -0.13502212 -0.0955594 -0.008589525 0.032656956 0.11637974 0.035335135 0.10508885
0.1287601 0.11799504 0.019766046 0.07292537 -0.024649909 -0.035950974 0.100774415 -0.017706187
-0.013889578 0.01941639 -0.09905167 -0.05662211 0.039630875 0.027125034 0.093828686 0.029609928
0.100125745 0.01620719 -0.014684057 0.12572642 0.03489941 0.02211023 0.095459715 0.07181376
-0.0008918468 -0.004224635 -0.15967123 -0.124421544 -0.03554689 0.091083296 0.050413862 0.08015249
0.08419751 0.18567494 0.21349026 0.09588571 0.06183819 0.11595229 0.050587554 0.13751657
0.147829 0.010247405 0.053318027 -0.15270813 -0.08272413 0.0049820472 0.060375918 0.0591693
0.10913311 0.119290635 -0.027372291 0.12694792 0.04560172 0.10855912 0.016641358 0.052510943
0.09921521 0.056610126 0.024438001 -0.01881215 0.038412053 -0.03345071 0.07576161 0.033861753
0.04200009 -0.92257243 -0.2867573 -0.35842952 -0.30140525 -0.35894507 -0.25121972 -0.27979308
-0.3952031 -0.3357759 -0.28049093 -0.088823825 0.08990225 0.32152033 0.4035195 -0.15364864
-0.052028373 0.13744777 0.062178545 0.05669399 0.1367625 0.15463784 0.10669938 0.10289479
0.027138472 0.13378066 0.046779025 0.15118274 0.06305676 0.0060547385 -0.07519991 -0.020879142
0.06964714 -0.051588073 0.04606705 -1.631873 -0.23837891 -0.25841635 -0.22659296 -0.23207451
-0.23702684 -0.24317127 -0.24406123 -0.2520032 -0.2489839 0.01852264 0.003782822 0.7864369
0.8398654 0.083001345 -0.0050323424 0.14411597 0.06945624 0.15168388 0.0707258 0.045275576
-0.012366998 0.09355106 0.07054944 0.036017876 0.13822475 0.02775487 0.0129929455 -0.0058817207
-0.05626256 -0.094867274 0.03666993 0.037852302 0.088820264 0.13855824 0.13502015 0.1615231
0.09823792 0.12024408 0.12997058 0.06962288 0.085989535 0.1411719 0.13339165 -0.025205461
-0.018060729 -0.11393413 -0.15206605 0.030495584 -0.06829259 0.060596228 0.061009422 0.13755286
0.071877375 0.049891323 0.1423454 0.06989437 0.11611088 0.10323457 0.06568685 0.11909541
-0.070117824 0.042019997 -0.17509256 -0.04564108 -0.013259993 0.08387099 0.07041204 0.07260753

lstm.weight_hh_l0 f4 [512, 128]
00000000: bfab 013d 8cd8 143d 9fdc 8bbd 1f71 1fbc
00000010: 4ed3 37bd 75ed 743d 5b2c 53bd 0820 0d3c
00000020: 5ec7 a3bb 76cc a43d d52d 323d d1eb ec3c
00000030: 3119 673c 7e4a 95bd 8975 83bd 55e5 6a3c
00000040: 67a5 3cbd d222 a93c 6408 8c3d eab7 35bd
00000050: 3347 06bd 731a c2bc d235 3dbd 4ac6 803d
00000060: 000a a03d 08be f53c 15f9 eb3c d337 cd3c
00000070: 86ae 8f3d 9e06 b73c 1115 b0bd 82ca 9f3d
00000080: 43ad a2bd d1b2 ffbc cdb0 453d 10e5 90bd
00000090: c47e 8e3d 72cd 1ebd 8e9d 52bd 697a 2abc
000000a0: 2732 9a3d 7fed 163d b9b5 073d dcea 3f3d
000000b0: 8a27 3c3c acc9 30bd 3c52 933d 2bfd ae3d
000000c0: 51c7 113d 9c9c 94bd d578 863c 375a 83bd
000000d0: 6424 ad3c bbda 913d 6e18 843d f254 19bd
000000e0: 978b f83a e3cf 993d 208d 94bd 2e0e 253c
000000f0: c767 9dbd c454 133d 4922 8ebd da3d 7c3d
00000100: fe71 58bc 0e5d 733b c22e 74bc bff7 473c
00000110: 5d94 bdbb 2979 2cbd af1d 36bd 73d2 973d
00000120: ac21 01bd 5777 2e3b e5e3 853c 53b0 52bd
00000130: d4d2 243d fbf3 bcbc 6326 60bd c16b 88bd
00000140: 35a8 3f3d 710d 8139 9fdd f2bc a6e2 2d3d
00000150: 0e08 52bd cce9 37bd 2e7d 5f3d 504b 0ebd
00000160: 0ad9 4e3d 12cc acbd 9d8d 733d 241e 24bd
00000170: e05e 7e3a 8344 703d 736c 823d 1279 a0bd
00000180: 2959 0fbc 488d 693c 545e 7bbd aa10 eb3c
00000190: 5a73 87bd 6f03 68bd c9e4 fabc 9ad5 a9bd
000001a0: 9213 aabd f891 90b9 a26c 45bc d228 3c3d
000001b0: a50c 45bc 17fb 0d3d 7983 a53c c24d 83bc
000001c0: 440a 0f3d 2349 93bd 4bee 87bc 8947 adbd
000001d0: 5339 2c3d a4eb b33d 73dc a93d fec0 d73b
000001e0: 8d8d cf3c beae 443d 377e 14bd 6398 0ebd
000001f0: 90b2 6abd af0a 393d f646 92ba ec6b 13bc
00000200: 5bf0 b43d 2ea3 9d3c a0ea 573d d7b0 d73c
00000210: 66cd a53d 7642 cbbc bc63 7fbd d87e 833d
00000220: ba6f 0a3d 5e6b 843d 967c 7cbc 5a1e 7e3c
00000230: 4454 573d 4f81 25bb ca1f 54bd 00e2 e13c
00000240: 1a52 8a3d 2536 96bc 93c2 8e3d 46cf 00bd
00000250: dd3d bf3c 0f24 86bd 1709 27bc 234f 183d
00000260: 5051 cfbc ea83 4fbc 04a2 48bd 8b32 033d
00000270: 63e5 873d c1c5 66bc c6ba 7f3c 9922 fe3c
00000280: c0c8 9b3d e6d3 a43d 134b 44bc ca43 10bc
00000290: 237e 813d 25a7 9b3b 4cc4 123d 9c90 833d
000002a0: a1ca 8dbd bc7c 3ebc 352d e43b dc9f 4a3d
000002b0: 1bc9 903d 3b28 78bd 616a 8abc 0333 c8bc
000002c0: ea67 503c c458 973c 19db 3cbc 6a59 873d
000002d0: d89e 833d 6252 6f3c 61b4 b2bd b2ab a03a
000002e0: 6c56 963d 9078 8b3d e81b 8cbd 88f9 a73d
000002f0: 13d3 823c b0db ad3b e9c0 783d 87ce 79bd
00000300: e201 23bd 8b11 adbd 90b3 90bd fb4d 93bc
00000310: 2a90 503d 6287 643d 6103 573d 552e b23c
00000320: a33f 2f3d 29f8 c43c c18f 96bd 99b7 88bd
00000330: 18fe a03c 24a4 9c3d 79dd 3abd 22ed 483d
00000340: 9ead 353d 156b a63d 2f6c 6c3d 2b3c aabd
00000350: dbc9 24bc 5866 a6bc 2124 b9bc 672e 963d
00000360: e83a 6a3d e6d7 e13c b67d 703c 5eac ccbc
00000370: 8188 883d 6e4a 55bd 796d 413d 209b 1fbd
00000380: f9bb 963d 08f0 a6bc 95f1 623d 7c53 93bc
00000390: 2314 bcbb e988 38bd 4d0b 89bd 24f0 96bd
000003a0: 8f7b 0abd 1439 b9bc 8733 9c3d 7a31 933d
000003b0: ba4f 723d 217a 74bd 6c77 1e3d 1763 713d
000003c0: 01c7 953d a31c 61bd 1bb4 c73c 522b 8ebd
000003d0: b49c f6bb 31f5 673c 913a eabb 1a33 3bbc
000003e0: 9958 223d 6412 a43d 676b 37bd 2175 a83d
000003f0: af1a 193d df8f a83d f5c2 253d 0a9c 8fbd
0.03165793 0.036339328 -0.068291895 -0.00973156 -0.04487925 0.05979677 -0.051555973 0.008613594
-0.0049981317 0.0804681 0.04350074 0.02892104 0.014105127 -0.07289599 -0.064189024 0.014336904
-0.046056177 0.020646486 0.06837538 -0.044364847 -0.032782745 -0.023694253 -0.046193905 0.06287821
0.07814407 0.02999784 0.028805295 0.025051033 0.070157096 0.022342023 -0.08597768 0.07802297
-0.07943203 -0.031213196 0.048264313 -0.0707494 0.069577724 -0.038770147 -0.051419787 -0.010405161
0.07529097 0.036847588 0.03313229 0.04685484 0.011484036 -0.04316108 0.07193419 0.08544382
0.035590474 -0.07256433 0.01641504 -0.064136915 0.021135516 0.07121798 0.06449972 -0.037434526
0.00189625 0.07510354 -0.0725348 0.0100741815 -0.076858096 0.03596951 -0.06940133 0.061582424
-0.013210772 0.0037134322 -0.014903726 0.012205063 -0.0057855085 -0.042107735 -0.044461902 0.07413187
-0.031526253 0.0026621425 0.01634402 -0.051437687 0.040240124 -0.023065558 -0.05472411 -0.066611774
0.046791274 0.00024614812 -0.029646693 0.042452477 -0.051277213 -0.0449007 0.05456274 -0.034739792
0.050499953 -0.08437361 0.059461225 -0.040067807 0.00097034685 0.058659088 0.06368341 -0.07835592
-0.008749285 0.0142548755 -0.061369255 0.02869447 -0.066137984 -0.0566439 -0.030626671 -0.082926944
-0.08304514 -0.00027574576 -0.012049826 0.045937367 -0.0120269405 0.034663286 0.020204293 -0.016028289
0.0349219 -0.07191684 -0.01659312 -0.0846091 0.042046856 0.08785179 0.082940005 0.0065842858
0.025336051 0.04801821 -0.03625318 -0.034813296 -0.057299197 0.045176204 -0.0011160064 -0.008997899
0.08834907 0.01924285 0.05271399 0.026329441 0.08095817 -0.024811964 -0.062350973 0.06420678
0.033797957 0.06465791 -0.015410563 0.015510166 0.052570596 -0.0025254076 -0.05178813 0.027573586
0.06753941 -0.018336365 0.06970706 -0.03144767 0.023344928 -0.065498464 -0.010195038 0.037184846
-0.025307328 -0.012665728 -0.048982635 0.032030623 0.06635549 -0.014085234 0.015608495 0.031022357
0.076066494 0.08048229 -0.01198079 -0.008805225 0.06322887 0.00475015 0.035831735 0.064240664
-0.06923414 -0.011626419 0.006963397 0.04946886 0.07069608 -0.06058524 -0.016896429 -0.024438387
0.012720088 0.018474944 -0.011526846 0.06608851 0.064267814 0.014607044 -0.08725811 0.00122582
0.073407024 0.06810105 -0.0684126 0.08201891 0.015969789 0.00530573 0.06073085 -0.060987975
-0.039796717 -0.08450612 -0.07065499 -0.01798152 0.050918736 0.055793174 0.052493457 0.021750608
0.042785298 0.024044113 -0.07351638 -0.066756435 0.019652411 0.07648495 -0.04562137 0.049054272
0.044355027 0.08125893 0.05772036 -0.083122574 -0.010057892 -0.020312473 -0.022600235 0.07333069
0.057185084 0.027568769 0.014678409 -0.024984535 0.06666661 -0.052072935 0.047223542 -0.038966298
0.07360072 -0.020378128 0.05540617 -0.017984144 -0.005739705 -0.045052443 -0.066916086 -0.07370022
-0.03380924 -0.022610225 0.076270156 0.07187171 0.059158064 -0.059686784 0.03868811 0.05893239
0.073133476 -0.05495895 0.024377873 -0.069418564 -0.0075260047 0.014157579 -0.007148095 -0.011425758
0.039635275 0.0801132 -0.04478016 0.082254656 0.037378963 0.08230566 0.04046913 -0.07012184

lstm.bias_ih_l0 f4 [512]
00000000: af3a 06bc f76e 033e 092b b03d 15e0 d73d
00000010: 9ef5 903d 10fd bfbc 7d34 6dba e70e 443e
00000020: bd9e 023e cece cdbe 79a2 e13d cfaa 35bf
00000030: 8635 9c3d 73b5 3a3b d24f 1c3e 4c31 0c3e
00000040: 4edf 0a3d 4704 183e 749d 473d 3a5e 263d
00000050: d44e 753d 5bd4 1a3d f854 273f c886 083e
00000060: 344c 4a3c a60c e13d fcc1 c53d 76cd 093e
00000070: f043 a0bc aec8 2f3e 1d05 413f a1ea cd3c
00000080: 6982 f13c f3a7 b63d 22c1 ed3d 6638 d73d
00000090: c577 353d 5460 63bf fd8c b13d 8faa 6fbf
000000a0: 6b7e 763d 9b8c 033e 98ec 40bf bb7d 5b3e
000000b0: 0d7d 263d 073c e93d c182 3a3d d94d 423e
000000c0: 8d85 153e 5772 053e edce 923d 831e 933c
000000d0: 889b 4c3f 174b 933d 252f a23d 10d9 22bf
000000e0: ad23 c53e e278 c7bb dc85 bd3d e3f2 2c3d
000000f0: 2ce6 54bf 1dca 0a3e fa31 043e 4e27 51bf
00000100: 4451 5e3c d498 093e 98b3 433e 048a 703d
00000110: 6f10 54bf 3622 733d e853 3a3d 3eaa de3d
00000120: f7de d53d db6b 093e 6324 48bf e084 043e
00000130: 9ea9 323e 8e20 cc3d 884c 2a3e 9cd2 533c
00000140: ca1a 253e 439f 433d 9c29 493e 3856 503a
00000150: 3b69 df3d 8de8 8f3e 889a 91bc 5324 213e
00000160: 04a3 2b3e f4e7 68bf bd3d 613e 4211 743d
00000170: ef65 6dbf 50c7 eb3c c35f f63d 8f45 0b3e
00000180: a371 963d bdab 54bf f79d a53d 216d 293d
00000190: 5fff 9b3d 9751 903d 45f3 193e 28fa 0b3d
000001a0: b146 2f3e 0998 263d ae0c c03d c007 093d
000001b0: c8c2 36bd 983e aa3d 0116 9b3d fbd5 873d
000001c0: 11e1 8c3d 0e24 ddba 3dd5 d23d 5b7b d73e
000001d0: ba25 eb3d 8762 223d 0c76 223e c9bd d33d
000001e0: eb0c f33d 289a 9e3d 3fb9 883d 095a 433d
000001f0: cace 253e 3309 8b3d d0eb 4e3d 804b eabd
00000200: 4b54 9d3d e6c0 ad3d 5776 d9bb 4a47 5a3c
00000210: 8d4c 823d fc0a a7bd dae0 15bb 42a5 b0bd
00000220: fbad 9a38 3d29 893d e7c2 82bd bf6d 54bd
00000230: 591c 983c 96ec 8bbd 55e7 94bd fadc 473d
00000240: 498f 2dbd 8395 fcbc d04a 473d 8be3 7bbc
00000250: 44e1 553d bb45 a73d bf56 84bc 9d89 41bd
00000260: e496 d0bc 676d f039 d8ca 8ebd 9cdc fabc
00000270: 49f9 89bd e698 b13d 594b 59bd 062c e23b
00000280: 55c7 36bd 913a 093c a257 42bc 1cab 783d
00000290: 7f4f 993d 8d5b b2bd 1e3d 03bd 19c8 b43d
000002a0: bf1b 693b b5d2 a23c ed95 803d ed67 7cbd
000002b0: c11f 81bd d9ef 1dbd f82d 293d a175 833d
000002c0: 2f7f af3d 7814 a73c 7baa 243c a052 a3bd
000002d0: 7348 413d 7c4e 94bc 8842 fd3c f0ba 923d
000002e0: 6103 d33c 1f99 9a3c 7939 29bd edb9 acbd
000002f0: 1ac7 773c f130 55bd 2d3a 923d 0cec 4d3d
00000300: db3d efbc 0469 6e3d 4a5a 243d 9046 103d
00000310: c481 48bd 3c2f 86bd e56d bc3c 9203 223d
00000320: e081 593c 1374 7dbd 077d aabd 0b72 133d
00000330: 9c2b 4cbc 2b5e a9bd 165f 5abd e4ab 1abd
00000340: 2b32 eabb 2ab8 a5bd fba1 ff3c 900c 3f3d
00000350: 1fd4 523d 6409 91bd 4ffb 53bc 9e48 9fbd
00000360: f445 9dbc 502d fa3b 146a 243d 1745 ae3c
00000370: 9f01 053c d4e9 a53c fea6 8e3c b5a5 02bd
00000380: 1ee1 9dbc 3c72 853d 6ec2 183d a63e 02bc
00000390: 9128 83bc 01d3 24bb 01e2 5e3d e99c b2bd
000003a0: fee8 df3b 29b8 afbd 9bbd 243d 8025 8ebd
000003b0: 34ff a23d 3910 5abd e031 973b aabd 9f3d
000003c0: 9670 633c b98a fd3c 7a2d fcbc 414d 883d
000003d0: 0df4 4ebd 0c2d 58bd fdc2 6f3a de98 a83c
000003e0: 1d64 af3d 8e0a 6b3d ff6c 58bd 079c 39bd
000003f0: 4f49 11bd 0d0a 83bc 32c3 613d d4f0 993b
-0.008192702 0.12835298 0.08601958 0.10540787 0.07078098 -0.0234361 -0.0009048654 0.1914631
0.12755866 -0.40196842 0.11017317 -0.7096376 0.07627396 0.00284895 0.15264824 0.1369068
0.033904366 0.14845382 0.048734143 0.040617205 0.05988963 0.037800174 0.6536403 0.13332665
0.01234727 0.109887406 0.0965614 0.13457283 -0.019563645 0.17166397 0.7539843 0.025136294
0.02948113 0.089187525 0.11609103 0.10508804 0.044303674 -0.8881886 0.086694695 -0.93619627
0.060179155 0.12846605 -0.75361013 0.21434681 0.0406466 0.113884024 0.045534853 0.18975009
0.14601727 0.13031898 0.07168374 0.017958885 0.7992482 0.071920566 0.07919148 -0.6361246
0.3850378 -0.0060874084 0.09254047 0.042223822 -0.83163714 0.13553663 0.1290969 -0.817006
0.01356918 0.13437206 0.19111478 0.058725372 -0.82837576 0.059358798 0.045490175 0.10872315
0.10442918 0.1342005 -0.7818052 0.12941313 0.17447516 0.09967147 0.16630757 0.012928631
0.161235 0.047759306 0.19644779 0.0007947418 0.10908743 0.2810711 -0.017773882 0.15736513
0.16761404 -0.9097893 0.21996208 0.05958677 -0.92733663 0.028781563 0.12029984 0.13600753
0.07345893 -0.8307455 0.0808677 0.04136384 0.076170675 0.07046812 0.15034206 0.034174114
0.1711681 0.040672336 0.093774185 0.033454657 -0.04461935 0.0831272 0.07572556 0.066326104
0.068788655 -0.0016871707 0.10294578 0.420863 0.11481805 0.039644744 0.15865344 0.10338933
0.11867698 0.07744247 0.06675958 0.047693286 0.16192165 0.06788864 0.050517857 -0.11440182
0.07682093 0.08484058 -0.0066364217 0.013322661 0.06362257 -0.08156392 -0.0022869618 -0.086252704
7.3756986e-05 0.06697319 -0.06384831 -0.051862475 0.018568205 -0.068322346 -0.072706856 0.048794724
-0.042372975 -0.030833011 0.04865533 -0.015374075 0.052216783 0.08167597 -0.016154645 -0.04725038
-0.025462575 0.00045857878 -0.06972283 -0.030622773 -0.067370005 0.08671741 -0.053050373 0.0069022207
-0.04462369 0.00837578 -0.011861714 0.060710058 0.07485866 -0.08708868 -0.032040708 0.08827228
0.0035569516 0.019875864 0.06278596 -0.06162255 -0.06304885 -0.038558815 0.041303605 0.0641892
0.0856918 0.020395502 0.010050411 -0.07974744 0.047188234 -0.01810383 0.030915514 0.07164562
0.025758447 0.018871842 -0.041314576 -0.084339 0.015123153 -0.052048627 0.071400024 0.05027394
-0.0292043 0.05820562 0.04012517 0.035223544 -0.04895188 -0.06551978 0.02300162 0.039554186
0.0132755935 -0.061878275 -0.08324628 0.03599743 -0.012461569 -0.08269914 -0.053313337 -0.037761584
-0.007147094 -0.08091767 0.031205168 0.04664284 0.051471826 -0.07081869 -0.012938335 -0.077775225
-0.019198395 0.007634796 0.040140226 0.021273179 0.008118062 0.0202531 0.017413612 -0.03189631
-0.019272383 0.06515929 0.037294798 -0.007949507 -0.016010555 -0.0025150182 0.054414753 -0.087213345
0.0068331948 -0.08580048 0.040219884 -0.06940746 0.079588324 -0.053238127 0.0046141 0.077998474
0.013881823 0.030949937 -0.030783404 0.0665536 -0.050525714 -0.052777335 0.0009146182 0.020580705
0.08564017 0.057383113 -0.05283832 -0.045314815 -0.035470303 -0.015996004 0.055117793 0.0046978984

lstm.bias_hh_l0 f4 [512]
00000000: 1d21 023e 7be7 563d 1d8c 1f3d 271e ed3d
00000010: 6bd9 023e 0ec2 5b3d d8df 173d bd75 433e
00000020: cc24 15bc babf d6be d931 673b 5fe8 61bf
00000030: fe0b de3d cd29 243b 623c ac3d c35a c53d
00000040: ca7d 1c3e 69e2 2e3e ca92 a13d 431c ce3d
00000050: 9114 253e 9043 f53d 423f 233f cb62 1b3e
00000060: bbaa 95bc 7952 063e 4b19 033e b9f3 6e3d
00000070: a13a e93d b250 253d e980 453f 4eb9 8c3d
00000080: b84a d7bd 90c1 413c 85dd 053e d46d 32bd
00000090: 8bb1 20bd e8ef 4bbf a5f6 8c3d 75fa 7fbf
000000a0: 52d9 de3d 26f7 9b3a 60c9 53bf fe00 c53d
000000b0: 61e5 953d d52d 053e 40a0 ee3d baa7 f53d
000000c0: dd34 9a3d a025 893c 08b9 553d a2b7 27bc
000000d0: 5e59 463f 58de 57bc 17ec 8f3d c8c8 2ebf
000000e0: 5bde e13e 1999 27bc 6c22 aabc 0488 673d
000000f0: 2aaa 39bf c04d 1ebd b5a2 a43d cc38 6cbf
00000100: 510c 273d b558 b83d 3565 a33d da6f f83d
00000110: 5f1b 66bf 89fc bc3d 4395 813d 5e83 9b3d
00000120: 3efb 19bd 1fe9 523e 65f3 6dbf 64eb 993d
00000130: 554d ff3d f096 023e f576 453e e909 513d
00000140: d56d 073e bb5c af3c 092c 4a3d 1bf7 da3d
00000150: 6d14 9c3d 05bb b73e fd51 8c3d b9ee de3d
00000160: 3114 a43d 4275 54bf e5dc 0e3e 4ceb 153d
00000170: a3c7 73bf e3b4 763b 62b9 a83d 2e08 083e
00000180: 9399 393e f306 62bf 9f7b f23d bef8 fe3d
00000190: 6489 a73d ba44 ab3c 2ba9 213e 02a0 093e
000001a0: d70f e53d 6f2d a43d ecf8 f33d 59d0 bf3d
000001b0: 0dfd 90bc b2d5 c13d 6856 613d b60e 1b3d
000001c0: be0c 7d3d 52e5 c63c 16b8 b33d 1feb c63e
000001d0: 3c76 393c edb3 db3d 6793 3c3d 5857 383e
000001e0: e134 af3d c2ba 1e3e 9de2 7b3d 54cc fd3d
000001f0: b1a6 dc3d 6bf6 fc3d 6b49 953d cb9d 43bd
00000200: 2529 613d 1932 82bd 6b2f 94bd fa24 4f3d
00000210: a56a 8bbd 46f3 a43d dfde a0bb ceb3 ce3b
00000220: 4e67 8e3d 7331 553d 3f6b 9a3c 4131 b2bd
00000230: 2335 04bc cb49 f63b 0528 3dbd dfe5 29bc
00000240: f8e2 a23d 40c4 93bd bf1c 2f3d 0d83 cb3c
00000250: 34e0 8e3d 006b a2bd 773c 25bd 7347 0b3d
00000260: 7cfe 1dbd 09cf 3e3d 5ffa 483c 1afc 813d
00000270: 2972 163d e100 4dbd 12cb cabc f50f 2ebd
00000280: 9f1e 9cbd 166c 59bc a230 07b8 0904 5a3d
00000290: 1efc 543d c72d 3fbc 15a3 efbb 6912 5abd
000002a0: cf0d 333d 7b66 323d c018 13bc b2eb 663d
000002b0: 4540 0d3d 4ac2 c83b bf64 71bd 62eb 6f3c
000002c0: c5ce a23d 0c7a 1b3d dd71 07bd 9bf3 643d
000002d0: 35e2 b2bd b510 eb3c 7841 25bd aac9 533d
000002e0: 6c5a 203d 7e5d 92bd c11d a73d 0991 bfba
000002f0: ddd6 323d 7cba c03c bef9 bdbb 2f01 763c
00000300: 8c55 683d a4c9 923c 4e47 873d e2f9 6e3d
00000310: e1d2 9fbb 579f 42bd 8282 65bd d73e 62bd
00000320: bf01 8a3d 6654 2bbd a22c af3d 4aed 33bb
00000330: 8abd 783d a850 673c 4fab aabc c267 fe3c
00000340: a30b 92bd 1241 6f3d 0a11 84bd 272b 3c3d
00000350: 2b0f 203d b57c d0bc a7a8 0eba a236 6e3d
00000360: d3ec 2fbd 04fa b13d a69e 583d f500 7bbc
00000370: cadf 5fbd 3e1b 7dbc eed9 9cbd 6dc8 5ebd
00000380: 98b1 a43d 3991 f4bc 04eb cc3c 180a 84bd
00000390: 5689 6f3d 0298 69bd 59b3 2fbd 6cc9 2b3d
000003a0: d4bf 89bd 6717 5f3d d146 4b3b 2cca de3b
000003b0: 7278 60bc 3891 e43c a56e a3bd afb6 513c
000003c0: 6440 ecbc 8da0 1f3d fb44 9b3d c848 383d
000003d0: 0793 6fbd 2547 813d 0fc0 3fba 78c4 7e3d
000003e0: c6de 63bd 0012 63bd 0696 273c 19a8 3cba
000003f0: c707 6c3d 2c17 d4bc 7a45 343d d94e 77bd
0.12707944 0.05246685 0.03895198 0.11578017 0.12778251 0.05365186 0.03707871 0.19087882
-0.009103011 -0.4194315 0.0035277514 -0.88245195 0.10842131 0.002504933 0.084099546 0.09636452
0.1528236 0.17078556 0.07889326 0.10063984 0.16121127 0.11975777 0.637684 0.15174405
-0.018269887 0.13117398 0.12802617 0.0583379 0.11388136 0.04036016 0.77149826 0.068712816
-0.10512298 0.011825934 0.13072784 -0.04356177 -0.03923182 -0.7966294 0.06882981 -0.9999154
0.10881294 0.0011899217 -0.8272915 0.0961933 0.07319141 0.13005765 0.11651659 0.11994882
0.07529614 0.016741574 0.052178413 -0.010236653 0.77480114 -0.0131755695 0.070274524 -0.6827512
0.44114956 -0.010229372 -0.020768367 0.0565262 -0.72525275 -0.038648367 0.080388464 -0.92274165
0.04078323 0.090012945 0.07978288 0.12130709 -0.89885515 0.09227855 0.063272975 0.07593416
-0.03759312 0.20596741 -0.92949516 0.075156 0.12465922 0.1275289 0.1928366 0.05103484
0.13225491 0.021406522 0.0493584 0.10691663 0.076210834 0.35884872 0.068515755 0.108853765
0.08011664 -0.8299142 0.13951452 0.03660135 -0.95226496 0.0037644438 0.08238484 0.1328437
0.1812499 -0.88291854 0.11839985 0.124497876 0.08180502 0.020906795 0.15787189 0.13439944
0.11184662 0.08016478 0.119127125 0.09365911 -0.017698789 0.09464587 0.055014044 0.037855826
0.06177973 0.02427927 0.08775346 0.38851258 0.011319693 0.107276775 0.04603901 0.18002069
0.08555008 0.1550093 0.061495412 0.12392488 0.10773981 0.12351688 0.07289394 -0.047757905
0.05497088 -0.063572116 -0.07235607 0.050572373 -0.0680745 0.08054213 -0.004909381 0.0063080555
0.069532976 0.05204911 0.018849967 -0.08700801 -0.008069309 0.007516121 -0.046180744 -0.010369747
0.07953447 -0.07215166 0.042752024 0.024842763 0.06976357 -0.07930565 -0.040340867 0.034003686
-0.038572773 0.046584163 0.012266724 0.06346913 0.036729965 -0.050049666 -0.024755035 -0.042495687
-0.07623028 -0.013270399 -3.22318e-05 0.053226504 0.05199825 -0.011668629 -0.007313142 -0.053240214
0.04371434 0.043554764 -0.008978069 0.05637712 0.03448512 0.0061266767 -0.05893397 0.014643522
0.079495944 0.03795819 -0.033067573 0.055896383 -0.08734552 0.02869449 -0.04034564 0.051705994
0.039148733 -0.071467385 0.08159972 -0.0014615367 0.04366194 0.023526423 -0.005797594 0.015014931
0.05672221 0.017918415 0.06605397 0.058343776 -0.0048774336 -0.04751524 -0.056032665 -0.05523571
0.06738614 -0.041828535 0.08553435 -0.0027454668 0.060727634 0.014118351 -0.02083364 0.031055335
-0.07131126 0.058411665 -0.064485624 0.04593959 0.039076965 -0.02545009 -0.0005442001 0.05815757
-0.042950463 0.08690265 0.052885674 -0.015320052 -0.05465678 -0.01544839 -0.07658754 -0.05439036
0.08041686 -0.029854404 0.025014408 -0.06447238 0.058480583 -0.05702973 -0.04289565 0.041940138
-0.067260414 0.054465678 0.0031017552 0.006799003 -0.013700591 0.027901277 -0.07980088 0.012799903
-0.028839298 0.038971473 0.07581516 0.044991285 -0.058489826 0.06312398 -0.0007314691 0.062199086
-0.055632375 -0.055437088 0.0102286395 -0.00071966794 0.057624605 -0.025889955 0.04401157 -0.06037793

fc.weight f4 [1, 128]
00000000: 3dbc 1fc1 8741 1dc1 37a2 1f41 2d88 20c1
00000010: a92c 20c1 320c 19c1 0bee 1fc1 764f 6ec1
00000020: 9164 2141 45c5 c23f 6c02 1fc1 02c2 39c1
00000030: 6725 1f41 e352 1841 4109 2141 a35a 1e41
00000040: 3593 1e41 871f 1f41 5f5f 1fc1 8d05 1741
00000050: d27b 1041 5853 2f41 69ed 5b40 f614 83c1
00000060: 8d2d 2d41 8630 1dc1 aba0 1fc1 80bf 1d41
00000070: f907 1ec1 1159 1fc1 849f 60c0 2841 1cc1
00000080: 2b36 433d 44ed 23bd 4916 2041 b589 1c41
00000090: 0786 1fc1 2b98 3b41 2f2e 10c1 71c0 4ec1
000000a0: 937c 20c1 e458 3041 cbc0 2e41 4b7e 1fc1
000000b0: 8dd0 1e41 0321 17c1 fbcc 68c0 6e40 3c41
000000c0: 44f8 13c1 3eef 1c41 3ac3 1641 e6da 16c1
000000d0: 74e6 8ec0 3dc2 0c41 d13c 26c1 1c05 38c1
000000e0: c18b bb3f 0db1 5c3d 51ed 1dc1 5038 48c1
000000f0: 768d 3441 b5db 1d41 3f94 1e41 7ae4 6ac1
00000100: d1db 1fc1 8c65 17c1 7c75 3141 7673 4a41
00000110: 1ef2 45c1 d576 19c1 a51b 1d41 97d3 09c1
00000120: 6567 1dc1 66b9 1d41 c26b 3dc1 e805 2141
00000130: 1c78 c0c0 0085 2341 5419 5741 2b83 17c1
00000140: 21e0 1ec1 a9d7 1ec1 6b2e 21c1 503d 5bc1
00000150: f504 2041 bed2 42bf 837a 1e41 93a0 89c0
00000160: d943 35c1 3e2e 4b41 4ccb 36c1 6224 5cc1
00000170: e520 5641 edea 1cc1 41d9 1d41 abc8 1dc1
00000180: 1746 37c1 323c 49c1 1f10 2041 6d43 1fc1
00000190: 6bf2 1ec1 35e8 36c1 d5d4 02c1 e673 2141
000001a0: 427b 1e41 ce2a 3741 69e2 2041 055b c340
000001b0: d7b7 c0bc e1f2 1f41 5e94 1541 be9f 37c1
000001c0: a376 1dc1 6fab 2041 d113 2141 b900 8a40
000001d0: 0b92 4441 f3b9 1f41 ef91 1fc1 a5ac 1f41
000001e0: e0c6 1ec1 bfe2 0d41 759c 1ec1 ec04 1ac1
000001f0: 9357 2041 cfd3 1d41 4eb0 11c1 6c7d 61bc
-9.983457 -9.828498 9.977103 -10.033246 -10.010903 -9.565477 -9.995616 -14.8944
10.087052 1.5216452 -9.938091 -11.609865 9.946631 9.520236 10.064759 9.897128
9.910939 9.945197 -9.960784 9.438855 9.03023 10.957848 3.4363654 -16.385235
10.823621 -9.824347 -9.976726 9.859253 -9.876946 -9.959245 -3.509736 -9.765907
0.04765908 -0.040021196 10.005441 9.78362 -9.9702215 11.72465 -9.011275 -12.921983
-10.030414 11.021702 10.922069 -9.968333 9.925916 -9.4455595 -3.637511 11.76573
-9.248112 9.808409 9.422663 -9.428442 -4.4656315 8.797421 -10.389848 -11.501247
1.4652025 0.053879786 -9.870439 -12.513748 11.284536 9.866139 9.911193 -14.68078
-9.991166 -9.462292 11.091183 12.653189 -12.371611 -9.591512 9.819249 -8.614158
-9.837743 9.857763 -11.838808 10.063942 -6.014662 10.219971 13.443684 -9.469523
-9.929719 -9.927651 -10.0738325 -13.702469 10.00121 -0.7610282 9.90491 -4.3008513
-11.329064 12.69879 -11.424633 -13.7588825 13.383031 -9.807355 9.8655405 -9.861491
-11.454612 -12.577196 10.003936 -9.953961 -9.934184 -11.431691 -8.176961 10.0907955
9.905092 11.44795 10.055276 6.104861 -0.023525162 9.996797 9.348722 -11.4765
-9.841464 10.041854 10.067338 4.312588 12.285655 9.982898 -9.973128 9.97965
-9.923553 8.867858 -9.9131975 -9.626202 10.02138 9.864211 -9.105543 -0.013762813
